==PROF== Target process 490590 terminated before first instrumented API call.
==PROF== Connected to process 490535 (/usr/bin/python3.8)
start Allocated: 4864.0 KB
stop Allocated: 5152.0 KB
diff Allocated:288.0 KB
----------------------------------------------------------------
        Layer (type)               Output Shape         Param #
================================================================
            Conv2d-1           [-1, 32, 26, 26]             320
            Conv2d-2           [-1, 64, 24, 24]          18,496
           Dropout-3           [-1, 64, 12, 12]               0
            Linear-4                  [-1, 128]       1,179,776
           Dropout-5                  [-1, 128]               0
            Linear-6                   [-1, 10]           1,290
================================================================
Total params: 1,199,882
Trainable params: 1,199,882
Non-trainable params: 0
----------------------------------------------------------------
Input size (MB): 0.00
Forward/backward pass size (MB): 0.52
Params size (MB): 4.58
Estimated Total Size (MB): 5.10
----------------------------------------------------------------
epoch 1
start Allocated: 18613.0 KB
…
