…
ocess 295341 terminated before first instrumented API call.
==PROF== Connected to process 295339 (/usr/bin/python3.8)
==PROF== Profiling "generateWinogradTilesKernel" - 1: 0%....50%....100% - 1 pass
==PROF== Profiling "volta_scudnn_winograd_128x128..." - 2: 0%....50%....100% - 1 pass
==PROF== Profiling "elementwise_kernel" - 3: 0%....50%....100% - 1 pass
Allocated: 5.0 MB
----------------------------------------------------------------
        Layer (type)               Output Shape         Param #
================================================================
            Conv2d-1           [-1, 32, 26, 26]             320
            Conv2d-2           [-1, 64, 24, 24]          18,496
           Dropout-3           [-1, 64, 12, 12]               0
            Linear-4                  [-1, 128]       1,179,776
           Dropout-5                  [-1, 128]               0
            Linear-6                   [-1, 10]           1,290
================================================================
Total params: 1,199,882
Trainable params: 1,199,882
Non-trainable params: 0
----------------------------------------------------------------
Input size (MB): 0.00
Forward/backward pass size (MB): 0.52
Params size (MB): 4.58
Estimated Total Size (MB): 5.10
----------------------------------------------------------------
epoch 1
==PROF== Profiling "winogradForwardData4x4" - 4: 0%....50%....100% - 1 pass
…
